…
ense(30)) #model.add(Activation('sigmoid'))å’Œmodel.add(Dense(30))å¯ä»¥åˆå¹¶å†™å‡ºmodel.add(Activation('sigmoid'))#model.add(Dense(30,activation='softmax'))model.add(Dense(10))model.add(Activation('softmax'))sgd = Adam(lr=0.003)model.compile(loss='binary_crossentropy', optimizer=sgd, metrics=['accuracy'])#model æ¦‚è¦model.summary() ____________________________________________________________________________________________________ Layer (type) Output Shape Param # Connected to ==================================================================================================== dense_23 (Dense) (None, 200) 157000 dense_input_7[0][0] ____________________________________________________________________________________________________ activation_23 (Activation) (None, 200) 0 dense_23[0][0] ____________________________________________________________________________________________________ dense_24 (Dense) (None, 100) 20100 activation_23[0][0] ____________________________________________________________________________________________________ activation_24 (Activation) (None, 100) 0 dense_24[0][0] ____________________________________________________________________________________________________ dense_25 (Dense) (None, 60) 6060 activation_24[0][0] ____________________________________________________________________________________________________ activation_25 (Activation) (None, 60) 0 dense_25[0][0] ____________________________________________________________________________________________________ dense_26 (Dense) (None, 30) 1830 activation_25[0][0] ____________________________________________________________________________________________________ activation_26 (Activation) (None, 30) 0 dense_26[0][0] ____________________________________________________________________________________________________ dense_27 (Dense) (None, 10) 310 activation_26[0][0] ____________________________________________________________________________________________________ activation_27 (Activation) (None, 10) 0 dense_27[0][0] ==================================================================================================== Total params: 185,300 Trainable params: 185,300 Non-trainable params: 0 ____________________________________________________________________________________________________ 1SVG(model_to_dot(model).create(prog='dot', format='svg')) 1234567tensorboard2 = TensorBoard(log_dir='/home/te
…
çš„å•å…ƒmodel.add(Dense(60))model.add(Activation('relu'))model.add(Dropout(0.25))model.add(Dense(30)) model.add(Activation('relu'))model.add(Dropout(0.25))model.add(Dense(10))model.add(Activation('softmax'))sgd = Adam(lr=0.001)model.compile(loss='binary_crossentropy', optimizer=sgd, metrics=['accuracy'])#model æ¦‚è¦model.summary() ____________________________________________________________________________________________________ Layer (type) Output Shape Param # Connected to ==================================================================================================== dense_171 (Dense) (None, 200) 157000 dense_input_35[0][0] ____________________________________________________________________________________________________ activation_171 (Activation) (None, 200) 0 dense_171[0][0] ____________________________________________________________________________________________________ dense_172 (Dense) (None, 100) 20100 activation_171[0][0] ____________________________________________________________________________________________________ activation_172 (Activation) (None, 100) 0 dense_172[0][0] ____________________________________________________________________________________________________ dropout_100 (Dropout) (None, 100) 0 activation_172[0][0] ____________________________________________________________________________________________________ dense_173 (Dense) (None, 60) 6060 dropout_100[0][0] ____________________________________________________________________________________________________ activation_173 (Activation) (None, 60) 0 dense_173[0][0] ____________________________________________________________________________________________________ dropout_101 (Dropout) (None, 60) 0 activation_173[0][0] ____________________________________________________________________________________________________ dense_174 (Dense) (None, 30) 1830 dropout_101[0][0] ____________________________________________________________________________________________________ activation_174 (Activation) (None, 30) 0 dense_174[0][0] ____________________________________________________________________________________________________ dropout_102 (Dropout) (None, 30) 0 activation_174[0][0] ____________________________________________________________________________________________________ dense_175 (Dense) (None, 10) 310 dropout_102[0][0] ____________________________________________________________________________________________________ activation_175 (Activation) (None, 10) 0 dense_175[0][0] ==================================================================================================== Total params: 185,300 Trainable params: 185,300 Non-trainable params: 0 ____________________________________________________________________________________________________ 1SVG(model_to_dot(model).create(prog='dot', format='svg')) 12345678tensorboard4 = TensorBoard(log_dir='/home/
…
